model/keypoint_classifier/keypoint_classifier.tflite (tflite, 6616 bytes, 6 tensors)

arith.constant f4 [5, 10]
00000000: befe 71be b363 b9bf 19f2 b63e e45e 653f
00000010: 53b2 3abf 8319 bcbd deb2 61bf b5eb d23e
00000020: f9f0 2ebf 327f 063f beb5 233d a041 a0be
00000030: 028d 2f3f dd1b 5a3d 0b44 d33e 61bc 8ebd
00000040: 7527 5b3f d04a 20bf bdb6 10bf f617 9d3e
00000050: a23f 703f 215f 3a3f 9ea8 ccbe 7b90 04bf
00000060: d399 cd3e 25fd a0bf 94fa 40bd 1672 863f
00000070: 98fc 38bf 2b8d bcbf 8bb4 81be 6cf8 d53d
00000080: cc3b 24bf 257c b2bf 0682 85bf 7301 353f
00000090: 8b9d 8e3d f486 f0be b03a cb3f 2af2 22bf
000000a0: 3d0f 11bf 190c 763f 3912 223f 0a6b 59bf
000000b0: 0ad4 94bf 7f6e 4abf b494 75bf 6a2f d6be
000000c0: 639a 4cbf 3dcc 3d3e
-0.23632333 -1.4483551 0.3573158 0.89597917 -0.7292835 -0.091845535 -0.88163555 0.41195455
-0.68336445 0.52537835 0.039968245 -0.31300068 0.68574536 0.05324923 0.4126285 -0.06969524
0.8560708 -0.62614155 -0.56528836 0.30682343 0.93847096 0.72801405 -0.39972395 -0.5178296
0.4015642 -1.2577254 -0.04711397 1.0503566 -0.7226043 -1.4730581 -0.25333056 0.10447773
-0.6415374 -1.3944136 -1.0430305 0.70705336 0.06963643 -0.4697796 1.5877285 -0.63650763
-0.56663877 0.9611221 0.63309056 -0.84928954 -1.1627209 -0.79074854 -0.9593003 -0.4183305
-0.79923075 0.18534942

arith.constant1 f4 [10, 20]
00000000: eb0a e4be bfe2 d33e b38f a9be a09e 943d
00000010: 3f0b 31bf 7129 bbbe a863 573e feed 00bf
00000020: 832e d03e 756c b03e bc9d 2f3e 6490 5f3d
00000030: 8b93 9e3e 7fb2 1ebf 889b cc3e 9d31 413d
00000040: c00b a7be 3a6b dfbd 5a89 533e 738a 733e
00000050: f4dc 56bd 7c47 37bd 41da d73e 2fc7 60bc
00000060: 6667 efbd 1072 063f 7273 3cbe 7662 143f
00000070: ca98 a53f 84d4 28bc 5aec 8d3d 48d1 33bf
00000080: ead3 de3d cc35 7a3e defe 2bbe 1c97 48bf
00000090: 27de ccbd ef77 00bf 96c1 083f 2b31 c73c
000000a0: c39d 0d3e 9c67 573e b42d f83e 628c fb3d
000000b0: ba81 323d c12d d63d 1c8a a23e acab 003f
000000c0: b21c 053e 9cf7 ec3c 0f70 6a3f 60c2 303e
000000d0: 989b 023b ede8 cf3e c6f9 403d 44c3 603d
000000e0: ae9b a33f dce4 b83e cbb8 563f ad09 873e
000000f0: adf3 9b3c 22d6 bbbe b98b 0d3f bb00 04be
00000100: 5fd5 783f 608c febe de6c 903f 0b2b f33d
00000110: 3a7d bfbd 08de 05be fa56 383e af93 3d3f
00000120: fd61 8cbe 1063 03bf 4a12 683f 6b9b aa3d
00000130: 2b4b 5d3f 5941 603f 0299 92bd 82bf 62be
00000140: 6501 5f3d 68e7 3f3f cf04 09bd 1262 3e3f
00000150: cffc e43e 96bb 9d3e 8a78 cf3e ab04 98bd
00000160: d135 57be f3a6 233f 6f1a 773e 376b 0ebe
00000170: 6dcc 7c3f c0eb 92bc 8a60 023f a8cf aa3f
00000180: ac94 d4be 5a73 ca3d b0eb 123e 9846 733f
00000190: 66fb 493f 2218 c13c 4236 0d3e 55ce c33e
000001a0: 8c58 18bf ad41 193f 8ae3 f5be 2a09 f7bd
000001b0: 408f 1ebf 4876 cfbb cda8 bd3d 2162 223e
000001c0: dac4 9fbd fe5c 52bf 58fe 583d d209 4bbe
000001d0: 5fb4 3dbf ad60 1cbe 8e83 60bf 3fe0 cdbd
000001e0: b16a 413f 5019 f73e 2fd0 533e 55e1 3b3f
000001f0: 7b4b 9b3e 13e2 0b3f 0f56 e33e 2926 063f
00000200: a9b7 f4be a10d 413f 0b89 d7be 1cad d1bb
00000210: 61b6 1d3f 3f28 4b3e a8f4 293e 75f2 bd3e
00000220: 8c18 3bbd b63f 35be 3774 de3b 2930 5b3f
00000230: 26a8 36bf 7de2 263e 29e8 d63e 5f86 203e
00000240: a56f 883e a009 3ebf 2dc3 1dbc 2f94 9ebe
00000250: 5632 373f f734 ce3e 3aab 5f3c 5aed 243f
00000260: 036f 4e3e 622d 51bf 2b2f 9e3e fbfd 8f3e
00000270: ff0c e7be 94b7 eebe 0a5a 373d 968c d43d
00000280: 0a90 8d3e 2d53 d7bd 12c9 80bf 0433 63be
00000290: fe42 9abf 482c bd3e 7b10 8bbf cb56 9c3e
000002a0: 5c42 0bc0 249e 01bf 479f 08bf c468 4dbf
000002b0: 0dc6 debe 1511 0b3f bcba 25bf 2cc7 aebe
000002c0: dd1e bdbf 7132 14bf 038d 36bf d1cc 0ebf
000002d0: 8ad1 38bf 7b8c 7c3d 2309 b43b b4ba 223f
000002e0: 9423 a63e 57f9 7f3d b454 4e3f 23f1 30bf
000002f0: c19a a83d acb7 e73a da91 bcbe ec6e eb3e
00000300: 3b96 d3bc 5c71 ae3e 75dd e33b a2e7 55bd
00000310: 2bba 653f b976 673e 101d 3f3f 6201 903e
-0.4453958 0.4138393 -0.33117446 0.07256818 -0.69157785 -0.36555055 0.2103411 -0.5036315
0.40660486 0.34457746 0.17150015 0.05458106 0.3097194 -0.61991113 0.3996241 0.047166456
-0.32626152 -0.10909124 0.20657864 0.23783283 -0.05245681 -0.044745907 0.42158702 -0.013719364
-0.116896436 0.52517796 -0.18403414 0.5796274 1.2937253 -0.010304574 0.06929846 -0.7024121
0.10880263 0.24434584 -0.16796443 -0.78355575 -0.1000331 -0.50183004 0.5342039 0.024315437
0.13829713 0.21035618 0.4847237 0.12282635 0.04358075 0.104579456 0.31745994 0.5026195
0.12999228 0.028926663 0.9157724 0.17261648 0.0019929167 0.40607396 0.047113203 0.05487372
1.2781885 0.36112106 0.8387572 0.2637457 0.019037092 -0.36686808 0.55291325 -0.12890904
0.9720058 -0.49716473 1.1283224 0.11873444 -0.09350057 -0.1307298 0.18001929 0.7405347
-0.2741851 -0.5132303 0.90652907 0.08330425 0.8644282 0.8759971 -0.0715809 -0.22143367
0.05444469 0.7496247 -0.03345185 0.74368393 0.44724128 0.3080718 0.40521652 -0.07422765
-0.21016623 0.6392662 0.24131177 -0.13908087 0.9874943 -0.01793468 0.50928557 1.3344622
-0.41519678 0.09885283 0.1434772 0.9502959 0.7889923 0.023571078 0.13790229 0.38243356
-0.5951011 0.5986584 -0.4802516 -0.12062295 -0.6193733 -0.006331239 0.09260712 0.15857746
-0.07801218 -0.82173145 0.052976936 -0.19827965 -0.7410335 -0.15271254 -0.87700737 -0.10052537
0.75553423 0.482615 0.20684884 0.73390704 0.30331025 0.54641837 0.44401595 0.5240198
-0.47796372 0.7541142 -0.42096743 -0.00639881 0.61606413 0.19839571 0.16597235 0.37099043
-0.045677707 -0.17700085 0.006788756 0.8562036 -0.71350324 0.16297336 0.41974 0.15676259
0.26647678 -0.74233437 -0.009629053 -0.3097243 0.7156118 0.40274784 0.013651663 0.6442467
0.20159535 -0.81709874 0.3089536 0.2812346 -0.45127103 -0.46624434 0.044763602 0.10378377
0.27648956 -0.105139114 -1.0061362 -0.2218743 -1.2051694 0.36947846 -1.0864404 0.30534968
-2.1759253 -0.5063193 -0.5336804 -0.80237985 -0.43510476 0.5432294 -0.6473806 -0.3413633
-1.4775044 -0.5788947 -0.71308917 -0.55781275 -0.7219473 0.06165741 0.0054942532 0.63566136
0.3244902 0.06249365 0.80597997 -0.69117945 0.08232642 0.001767864 -0.36830026 0.45983064
-0.025828471 0.3407086 0.00695389 -0.052222855 0.89737195 0.22603883 0.7465372 0.28126055

arith.constant2 f4 [5]
00000000: de0f 3dbe 6bd7 56bd b7f7 af3e 2aa9 b03d
00000010: 1515 04bd
-0.18463084 -0.052451532 0.3436868 0.086260155 -0.032246668

sequential_1/dense_1_2/BiasAdd/ReadVariableOp f4 [10]
00000000: 38d2 243f bcfb 533f 4f59 e7be ad4a d8be
00000010: d235 853e 25c6 febd cfb5 b33e 1ff7 133f
00000020: 649e 123f 8fbb 603e
0.6438327 0.8280599 -0.45185325 -0.42244473 0.26017624 -0.12440137 0.35099646 0.5779895
0.57272935 0.21946548

sequential_1/dense_1/BiasAdd/ReadVariableOp f4 [20]
00000000: ef4d 64bf 1c8c 98be 071e 66be 5665 4dbf
00000010: f895 28bf 32dd 68bf 3eae 5cbf 141d 55bf
00000020: 17e8 72be c9ff 843e ff32 bcbe 7144 e2be
00000030: 6907 e83e 81ef 23bf 3e41 c83e 1617 1a3f
00000040: 3c45 2cbf 4335 4ebf d901 35bf c9a3 94be
-0.8918142 -0.29794395 -0.22472392 -0.8023275 -0.65853834 -0.9096252 -0.8620337 -0.83247495
-0.23721348 0.259764 -0.36757657 -0.44192842 0.45318154 -0.6403733 0.39112276 0.60191476
-0.67293143 -0.8055002 -0.70705944 -0.29031208

sequential_1/dense_1/MatMul f4 [20, 42]
00000000: 3e6e dabd c2c6 86be a710 33bf 3e97 203e
00000010: 802c aebe b338 103e 2636 39be 4d3e 523d
00000020: 27dd 84be b572 653c 0664 d1bd 4c71 0f3e
00000030: d5b4 813d 8819 383e f7b2 1e3e ed0a 323e
00000040: 0a8f 523e dd2b a83d 5c6e f8bd d367 803d
00000050: faca 583d 131d 013e 31c5 45be bccd 2bbe
00000060: 4206 5bbf 66e0 edbe f00e 71be ad84 763d
00000070: 3789 ee3d 05df 0ebe 2be8 17be 0c76 07bf
00000080: e9d9 0ebf b3b4 c9be 7a4d f3bc 7096 b2bb
00000090: a68b 873d cb4c 07be 80a7 3dbd 5dd7 bfbe
000000a0: 4bd4 8cbe 76ae 73be f272 053e 0689 65be
000000b0: 7641 81be ef3c dbbe 70f9 acbd d2da 3abe
000000c0: e701 7a3e 79a1 7ebe 0220 7a3e 8a64 6ebc
000000d0: 6786 2fbf 06c5 83be ab6a 75be 3457 eabe
000000e0: ff83 e0bd 9e33 9abe 8687 093d 1bc1 0dbe
000000f0: fe8d 10bf d642 10be 0ebb 4ebe 9d44 23be
00000100: ea79 54bc f72e 0b3e 131d 1e3e d7c3 723e
00000110: 0df7 52be 5a56 58be 4997 a3bd 0d12 bdbd
00000120: e974 12bd 3161 6d3e c438 4a3e ffec 893e
00000130: 7ecd 283e ed36 91be 975a 59be 3ef5 1e3d
00000140: 41ad 32be 3c5e 793e 04e2 a93c ec81 a23e
00000150: c498 433e 945e 533e 5740 363d 1780 82bf
00000160: cbc8 0d3c 9608 3bbf deaf b3b8 8c51 58bf
00000170: e4b8 2d3e 4ee5 e1be 9eb2 b2be c7e0 b1be
00000180: b279 d9bc f9c9 2ebe bc13 3b3e d204 9cbe
00000190: e6e3 163e ff88 f9be 325b 0ebf d56e a4bd
000001a0: b8e0 6cbe 8bb2 2bbe e084 803e 4442 c33d
000001b0: fa1d bf3e 6882 ec3d 1a61 78be 09ee a03d
000001c0: 3882 d5be 9567 143d a729 37bc 233c 6a3e
000001d0: 698a c83e 5c6c 6f3e a865 b5be 23f3 873d
000001e0: 7ef1 42be f6c4 993d 7830 a7bd c3e4 873e
000001f0: 0e7f cb3c 534d a13e e246 6cbe 6075 00be
00000200: 026e 0ebf 3bd4 eb3e b8b3 f6be 0574 98be
00000210: 45b0 dbbe e5ae c7be a093 c3be 187a febe
00000220: 985a 00bf 32c7 2b3e ac44 c5bd 3224 e73c
00000230: 7ede 5f3e 631f 703c 0ef9 bc3e 17c1 583d
00000240: 4e51 fdbe 7f0e 603d 4e85 91be e529 4fbe
00000250: 2b7b ba3d 22dd 84bd c50c da3d 92dc 6f3d
00000260: 6798 5abe 319e b63d 1cbe 5dbe 038d 06be
00000270: 3195 1b3e 6b42 803d efbd 8e3e 26c8 2e3e
00000280: a73a 933d fbdd d3bb 92c2 83bd 7f42 dcbc
00000290: 323b 473d 9042 b63d d157 9ebd a7cb 473e
000002a0: 82f1 f9bd 47be 16be 57fc 9cbe 54e4 85bf
000002b0: 6fc2 22bd be72 3bbf e553 7abd 23bc 03bf
000002c0: 5c31 8fbe 48d9 efbe 822c 43be 693e 65be
000002d0: 8ac6 14bc adbf 73bd 83ab 613d 1e45 2b3e
000002e0: f11f db3c eafe ca3d 3768 8dbe b401 16be
000002f0: bd47 523e a047 34bc 1971 563d 0d0f 663d
00000300: eb39 2d3d 6a50 ae3d 00f2 96be 82cd bdbd
00000310: 6303 3a3d ce39 48bc 095a 863e 2d7d 973d
00000320: 5df1 823b d8e9 ca3d 2370 0dbe db1f 553d
00000330: 643b 2f3e 47f2 ca3c 7d3d d53d c226 e03d
00000340: f657 d4bc efc5 123e 6616 2d3e 2c87 cbbd
00000350: 2b2a 3cbe 9af3 e5be f232 693e 3e95 fcbd
00000360: c4b1 2e3d 180a 03be 469e c53b 83d6 983c
00000370: ced9 6a3e c257 d3bd 92a3 01bc 9d82 a1bd
00000380: e90a fbbd 8eb8 1f3e 3213 13be 0f98 1b3e
00000390: d6c3 603e 6074 18bc 5762 333e 7d6d f1bd
000003a0: 91cd 89bd 1023 0cbe 8d67 20be 15c6 0dbe
000003b0: c999 173e 030c 4abd 3663 913d 4aa1 43be
000003c0: 6852 b03d f84f dcbe 40fb bbba ff11 18bf
000003d0: b81d 213e c5d8 0cbd 96f7 953d 4aa5 84be
000003e0: 773b fe3c 638b 64be 6c42 25be 41b8 fdbe
000003f0: 3b57 9ebe 00a2 8dbe c446 c63e 45eb 4bbf
-0.10665558 -0.26323515 -0.69947284 0.15682694 -0.34018326 0.14084129 -0.18087062 0.051328946
-0.25949976 0.014004399 -0.10224156 0.14008063 0.06333319 0.1797849 0.15497957 0.1738698
0.20562378 0.08211491 -0.121304244 0.06269803 0.05292795 0.12608747 -0.19313504 -0.167777
-0.85556424 -0.46460265 -0.23540854 0.060185123 0.116472654 -0.13952263 -0.14834659 -0.529145
-0.55801255 -0.39395675 -0.02970003 -0.0054500625 0.06618433 -0.13212888 -0.04630232 -0.37468997
-0.27505717 -0.2379702 0.1303213 -0.22415552 -0.25245255 -0.42819926 -0.08446014 -0.18247536
0.24414788 -0.24866284 0.24426273 -0.014550338 -0.68564457 -0.25736254 -0.23966472 -0.45769656
-0.10962676 -0.30117506 0.03357651 -0.13843195 -0.5646666 -0.14087996 -0.20188543 -0.15944143
-0.01296852 0.13592134 0.15440778 0.2370752 -0.20602055 -0.2112669 -0.0798784 -0.092319585
-0.035756025 0.23181607 0.19748217 0.26938626 0.16484639 -0.28362218 -0.21225964 0.0388081
-0.17448904 0.24352354 0.020737655 0.31739748 0.19101244 0.20641547 0.044494953 -1.019534
0.00865383 -0.73059976 -8.568143e-05 -0.8449943 0.16965061 -0.44120258 -0.349019 -0.34741804
-0.026547287 -0.17069234 0.18269247 -0.30472428 0.14735374 -0.48737332 -0.55607903 -0.08028952
-0.23132598 -0.16767327 0.25101376 0.095341235 0.37327558 0.115483105 -0.24255791 0.078579016
-0.41700912 0.036231596 -0.011179364 0.22874503 0.391681 0.2338118 -0.3542912 0.066381715
-0.19037434 0.075082704 -0.081635416 0.2654172 0.024840858 0.31504306 -0.23073915 -0.12544775
-0.5563661 0.46060356 -0.4818399 -0.29776016 -0.4290792 -0.3900062 -0.38198566 -0.49702525
-0.50138235 0.16775206 -0.09632239 0.028215501 0.21862218 0.014655921 0.36908764 0.05291852
-0.49476093 0.054701325 -0.28422016 -0.20230825 0.09105524 -0.0648749 0.10646967 0.05855996
-0.213472 0.08916891 -0.21654552 -0.13139729 0.15193631 0.06262668 0.27879283 0.17068538
0.071889214 -0.006465671 -0.06433596 -0.026887177 0.048640437 0.088994145 -0.077315934 0.19511281
-0.12204267 -0.14721023 -0.3066127 -1.0460305 -0.039736208 -0.7322196 -0.061115164 -0.5145895
-0.27967346 -0.4684546 -0.19059947 -0.22387089 -0.0090805385 -0.05950897 0.055095207 0.16725585
0.02674863 0.09911902 -0.27618572 -0.14649087 0.20535178 -0.011003405 0.052353952 0.056166697
0.042291563 0.085114315 -0.29481506 -0.09267713 0.045413386 -0.012220813 0.26240566 0.07396922
0.003996058 0.099078834 -0.13812308 0.052032333 0.171125 0.02477373 0.104121186 0.109448925
-0.02592085 0.14333318 0.16903076 -0.09937891 -0.18375461 -0.44912416 0.2277334 -0.12333153
0.04265 -0.12796819 0.0060308306 0.018656975 0.22934648 -0.10319473 -0.007912533 -0.07886241
-0.1225794 0.15597746 -0.14362791 0.15194725 0.21949705 -0.00930509 0.17517982 -0.11788461
-0.06728662 -0.1368525 -0.15664501 -0.13845094 0.14804758 -0.04932786 0.07099001 -0.19104496
0.08609468 -0.4302976 -0.0014341846 -0.5940246 0.15733993 -0.034386415 0.07322614 -0.25907356
0.031034214 -0.22318797 -0.16138619 -0.49554637 -0.30925927 -0.2766266 0.38725865 -0.7965587
